bioinformatics/ComPath/compath_model_01/trained_model.pkl (torch_old, 682255 bytes, 2 tensors)

entity_embeddings.weight f4 [1134, 150]
00000000: 84b4 1e3e 09af 53bd 4e5c 1a3d 6305 243d
00000010: 27cd e4bc f337 25be 409c a23d 5073 853d
00000020: 4a78 05be fc81 643d cb6f 1f3d 80bc 513d
00000030: 42f8 49bd addd 8abd 935a 053c 3370 aa3c
00000040: db43 c13d 3e42 8bbd facf 833d 7e0b be3c
00000050: defd ed3d 59ce 6b3d fb27 003d 55a5 54bd
00000060: be06 4abd 32e7 fd3a 9644 2ebe 26d2 c5bc
00000070: f097 1cbe ae10 e2bd c8b3 23be 1f4f f4bd
00000080: 1198 4bbb 232f 873d be87 0abc a22b 533c
00000090: 622f e4bc 8eee 293d 72d6 1cbd e2e6 9bbd
000000a0: 58b2 a83d 9724 36bc f7b9 443d 7fe3 263d
000000b0: 8051 25bd 8424 1e3d f2ba 403d 46cc 4f3d
000000c0: 6e7f 893d 1fa0 c23d ce73 9f3c db4e c8bc
000000d0: 7898 7e3d 152f b83d 6e00 1bbb 4f25 803c
000000e0: ad5a 5f3d 3ba9 703d fe7c ea3c 5aab 893d
000000f0: 9731 c5bd 80ca 25be e893 603c e742 5c3d
00000100: d57e 263d 4bf2 b73d 3806 073d b193 fdbd
00000110: 85f3 4d3d 4125 a2bd 356c 27bd 506b 48bd
00000120: b2c7 cc3c 1e5f f13d 8dfb 6e3d cf21 ebbd
00000130: 04d9 053d c391 26be b12e 643d fda9 36bc
00000140: fbec 6f3d f810 4a3d 9a8f 923c 51b2 70bd
00000150: 34eb 23be d89f 2e3d 90aa 75bc eaf3 303e
00000160: 47ad a73d 13a0 13be 640b 763b 01b5 253d
00000170: c47e 62bd 754d afbd 1488 6dbd e797 583c
00000180: cdd3 eabc 5a63 2d3e d3fc 223d bf91 243e
00000190: 91b6 23be ec1b 2c3c bcb2 173e ad30 fdbd
000001a0: f1bb 67bd 82ee be3c 6c12 153d 4e5f cebc
000001b0: e352 da3d a289 7dbd 2efb 083e 304e 20be
000001c0: f5ea 5dbd 8993 c53c d0c9 59bd ea31 fcbc
000001d0: 4a59 30be db26 cf3d 22ab 0dbd 80d6 bcbd
000001e0: 7b02 973d 5a08 9c3c 2989 36bd 664d b93d
000001f0: cab6 89bd 1369 dcbd d4ab 143c 6989 97ba
00000200: b7cb 00be 805b 12bc 7209 833d 9db3 113e
00000210: ae59 6f3d 14d3 063d 3fc0 c9bd 5190 c9bc
00000220: cc71 79bc 4cfb 10be 9c96 00be 9b9c aabd
00000230: 1f42 ce3c 5ef1 0ebe 3cfb 60bd bce6 8a3d
00000240: d356 933d 820b a63d 5fd0 2c3b a392 03be
00000250: c8ee 94bb 0bab e6bd 042a 02be ab03 a1bc
00000260: 7a19 583d d118 f73d d28d a33d ff44 27be
00000270: 976e 93bd 7fd8 833b 3fe3 cdbd 42c8 303d
00000280: 56eb 243d 77c9 8f3d b2ac e23d f7f2 fbbc
00000290: 3ff6 91bd 8787 00bc 6532 c73d 147c 90bd
000002a0: 16d0 4fbd fe98 d43c 9e25 9d3d bf27 4d3d
000002b0: 4874 09bd 17ed 3bbd fc95 6ebd 8811 c3ba
000002c0: 82b2 21be 4c60 1cbd 521b 8cbd 641e dabd
000002d0: df2d 12be 7219 efbd e166 11bc eb3d 27bd
000002e0: 3dbf a53d d7e5 3c3d 4a91 bebc 4726 f53d
000002f0: 0d0d 81bd bb7d 63bd 20c2 d53d 7c40 263d
00000300: 1f3f 6b3d 3642 ad3d c1a3 323d abc7 34bc
00000310: b88f cc3d eff4 a2bd 478b e43d 2c40 853d
00000320: d4d1 b0ba 1a1b 15bd 4db1 443d a3ff 5bbd
00000330: bdae 16be 401d 073e 4862 263d efd7 77ba
00000340: 2e29 5e3b 8833 cb3c 396b 193d 1b99 0fbe
00000350: 586f 723d f458 8f3c 6112 2c3b f07a 993d
00000360: 7b86 d73c e76e fdbd fc89 b33c 9afa aa3d
00000370: 210a 41bd 6339 ec3d e7e5 493c 5bc7 cc3d
00000380: 1209 913d c7a9 f8bd 460e debc 6386 843d
00000390: 7cc9 803d 7067 593d 743f 523d 35d0 3a3d
000003a0: 4d27 bb3c d243 edbd 5846 21be ae0d cd3d
000003b0: eadb 9ebc f125 f43d ffd6 813d 819a 04be
000003c0: 2575 0b3d dc25 9c3d 8910 86bd 09eb fd3d
000003d0: 0b57 0bbd baec 6c3c 61dd 19be 22e2 243e
000003e0: f799 463d ba69 bd3d a25f 103e 2e1b d33c
000003f0: 881b 1e3e 303c 02be 53ec 5ebc 0b1f 3cbb
0.15498549 -0.0516806 0.037685685 0.0400442 -0.027929856 -0.16134624 0.079399586 0.06516135
-0.13034168 0.055788025 0.038924973 0.05120516 -0.049309023 -0.067805625 0.00813927 0.020805454
0.094367705 -0.06799744 0.06436153 0.02319884 0.11620687 0.057569835 0.03128813 -0.051915485
-0.049322836 0.001937127 -0.17018351 -0.024148058 -0.15292335 -0.11038338 -0.1598655 -0.11929154
-0.003106598 0.066007875 -0.008455215 0.012888821 -0.027854625 0.04148727 -0.03829045 -0.07612397
0.08237141 -0.011117122 0.048028912 0.0407443 -0.040360928 0.038609043 0.047053285 0.05073192
0.067137584 0.09503197 0.0194644 -0.024451664 0.062157124 0.08993355 -0.002365138 0.01564279
0.054529835 0.05875514 0.028624054 0.06722136 -0.09628599 -0.16190529 0.013707139 0.05377474
0.0406483 0.089817606 0.032964915 -0.123816855 0.050281066 -0.07917262 -0.04087468 -0.048930466
0.024997566 0.1178572 0.058345366 -0.11481058 0.032677665 -0.16266541 0.05570859 -0.011148927
0.05857561 0.04933259 0.01789074 -0.058763806 -0.16007692 0.042632908 -0.014994279 0.17280546
0.08187347 -0.14416532 0.003754341 0.040455822 -0.055296674 -0.08559696 -0.057991102 0.01321981
-0.028665448 0.16932431 0.039791893 0.16071223 -0.15987612 0.010504704 0.14814276 -0.123628
-0.05657572 0.023307089 0.03639452 -0.02519193 0.10660341 -0.061898835 0.13377067 -0.15654826
-0.05417915 0.024118202 -0.05317098 -0.03078552 -0.17221561 0.10114833 -0.034587033 -0.092206
0.0737352 0.019046951 -0.0445644 0.09047966 -0.06724317 -0.10762229 0.00907417 -0.0011561337
-0.12577711 -0.008932948 0.06398286 0.14228673 0.058435135 0.032916144 -0.09851121 -0.024604948
-0.015224885 -0.14158362 -0.12557453 -0.083306514 0.025178013 -0.13959262 -0.054927096 0.0678229
0.07194295 0.08107664 0.0026369316 -0.12848906 -0.0045450665 -0.112630926 -0.1271134 -0.01965507
0.05275867 0.1206528 0.079860345 -0.16334914 -0.07198828 0.004023611 -0.100531094 0.04315973
0.040263496 0.07020848 0.11068095 -0.030755503 -0.07127046 -0.007844812 0.09726409 -0.07054916
-0.050735556 0.025951859 0.076731905 0.050086733 -0.03355816 -0.045880403 -0.058248505 -0.0014882544
-0.15790752 -0.038177773 -0.068411484 -0.10650328 -0.14275311 -0.11674775 -0.008874626 -0.040830534
0.080931164 0.04611763 -0.023262639 0.119701914 -0.06301317 -0.055539828 0.10437417 0.04058884
0.057433244 0.08459894 0.0436132 -0.011033933 0.0998835 -0.079568736 0.111593775 0.065063804
-0.0013490268 -0.0364028 0.04802065 -0.05371059 -0.14715095 0.13194752 0.040621072 -0.0009454479
0.0033899057 0.024804845 0.03745577 -0.14023249 0.059188217 0.01749847 0.0026256072 0.074941516
0.026309242 -0.123746686 0.021916382 0.0834858 -0.0471288 0.11534383 0.012322879 0.099989615
0.07081808 -0.121417575 -0.027106415 0.06470945 0.0628843 0.05307716 0.051330045 0.045608718
0.022845889 -0.11585201 -0.1574949 0.10012375 -0.019391973 0.11921299 0.063398354 -0.12949564
0.034047265 0.076244086 -0.065461226 0.12398345 -0.034018558 0.014460737 -0.15025856 0.16101888
0.048486676 0.09248681 0.14098981 0.025769796 0.1544019 -0.12718272 -0.013606149 -0.0028705026

relation_embeddings.weight f4 [2, 150]
00000000: e3d0 db3a f21d cc39 2075 973a e4fe 2839
00000010: 8e03 a7ba 5eb2 b23a 826b cd3a fd8f 57ba
00000020: c28b b139 006d 89b8 221b a9b9 b498 cfba
00000030: c9ed ebb8 aa78 27ba 9f6d d4ba 9e36 7b3a
00000040: ab79 c5ba 46c6 1e3b a202 89ba 46c9 fcb9
00000050: 4332 f4ba 7641 833a fa07 bcba fe53 3cbb
00000060: 22ef d9ba 46df 95ba f76c e0ba 6b49 7a3a
00000070: 7ed7 b139 1e44 283b ecbb 71b9 9262 363a
00000080: 1a90 4cba 8cf2 4dba eccd 30bb 4b5f cdba
00000090: fa18 933a 46ae b3ba 8092 c838 d6cf 293b
000000a0: 2842 033b ea6b 82ba 9cb3 823a 9aed ee3a
000000b0: 80e1 4c38 9a39 a9ba 5f28 46ba 1ea6 b0b7
000000c0: 5e66 90ba 7689 983a e561 163a c247 a63a
000000d0: 07c3 89b8 97af edba 021d 523a 0604 12bb
000000e0: 77dd f8ba 32ff 183a e4e2 c8b9 d483 38ba
000000f0: c445 c4b9 4274 bab9 1c9c 7bba 319a 823a
00000100: 8222 9939 f3c4 f13a e094 13bb d201 653a
00000110: 886a 74b9 4382 03ba 0029 9d38 8466 9b39
00000120: 7200 b2ba d41b 753a 425e ac39 231a 31ba
00000130: a723 e6ba 7a49 a8ba 73a3 3fba 8732 b8ba
00000140: 01a3 1fba f62b a9ba a808 0dbb e2a0 5cba
00000150: 54b6 cf3a 88ce ce39 ba79 14ba 8c30 6db9
00000160: b2f0 ed3a 6276 9839 23e8 c53a 8686 f8ba
00000170: 1720 83ba ca17 b23a 24b4 253b 5395 c33a
00000180: 26a7 00bb 1035 b1b8 c929 9e38 be6d d53a
00000190: e3f2 64ba 001d 5638 43d5 3eba 2003 b5b9
000001a0: c18d 833a 9572 a03a 6d8d 98ba 326a 723a
000001b0: 869f b43a e83d 8439 bc04 64b9 1e7d 293a
000001c0: 50d8 c039 1a6d 26ba f54b 843a 1e92 103b
000001d0: 10bb a9b8 0d1b 76ba eb77 e73a 8ea9 263b
000001e0: f431 7bba 49ba 9aba ebc6 baba 06b2 ea3a
000001f0: 9a76 8fba 2aa1 acba 52c6 313a f3fa 3c3a
00000200: 04de 41b9 cd0d 81ba 8423 0abb e2d6 833a
00000210: d05a cb39 513a 01ba a212 8539 7674 feba
00000220: 32b3 a63a a54d 50bb 88fa 80ba 040c 1f39
00000230: 0f4e f8ba 005c 6bb8 9f54 ec3a 02aa 433a
00000240: deab 9e3a 03ce e9ba 1862 193b 7b97 c7ba
00000250: 1e56 903a bb1c 693a e88a 733b 4320 243d
00000260: c474 82bc e739 ccba b05f cd3c 2c00 4d3a
00000270: cf68 33ba 573b cbbe 5279 19bc b216 87be
00000280: e0ad 82ba 2d93 6a3c 0699 133b f635 c63e
00000290: 642e c33c 0cbb 813b 5ddb 29bb d581 773a
000002a0: c12f 453d f233 adba f48d c5bb a2e3 09bb
000002b0: 904f ddbe 605e d539 56c4 35bb 7e85 beba
000002c0: 86ed 8ebc 1657 c93e 0cd8 07bd 2db3 23bb
000002d0: 363c 9bba c43f eb3b a456 aebb ff85 8cbe
000002e0: a665 a43c 6d01 cbbe 9622 25ba 51a4 32bc
000002f0: 4ed9 2439 7aa1 e8ba d227 8b3c fdd8 3c3d
00000300: 32f9 09bb a1ab 113c 47a3 933e e6f5 8fbe
00000310: 0a63 333d 20f4 903c 3991 313d cfc2 b7bc
00000320: fff7 8ebe 4099 c03e 6f90 9cbc c5a0 463d
00000330: bff2 d7ba e4fd 8eb9 99ff 8a3b a5e1 adbe
00000340: ea20 26bb fefa babe d4e2 d9b9 cb0d bebc
00000350: c8dc ab3d d9e7 8dbe a16d cb3a 9406 893a
00000360: c82d 48be 0fda 4fbb 4272 c5be 8ea8 7cba
00000370: 91ef db3e 411e b03a 7c25 073b d42b b8bc
00000380: 88be b639 1bd4 b23a ac53 c8be 8206 133b
00000390: 1027 bfb8 7635 d5bc 5c64 593c ac02 70ba
000003a0: 4da3 36ba fe53 f53c b8f5 22ba a3ff 593b
000003b0: e175 e7ba 147f 913c 0e5d 5d37 a660 a0ba
000003c0: fe31 bf3b 584d 4db9 fe77 76bc c20c 153c
000003d0: 795f 9ebc aee3 8bbb cc60 37bd 141c 573c
000003e0: 9438 66bc dd35 553b eb7d c0ba 8f16 36bc
000003f0: 7a96 a4ba 9dac 443b 4947 c43e 7bd7 56ba
0.0016770627 0.00038932223 0.0011555292 0.00016116683 -0.0012742148 0.001363348 0.0015672299 -0.0008223055
0.00033864198 -6.552972e-05 -0.00032254407 -0.0015838356 -0.00011249964 -0.0006388525 -0.0016206986 0.0009583029
-0.0015066167 0.0024227067 -0.0010453055 -0.00048215146 -0.0018630702 0.0010014016 -0.0014345639 -0.0028736587
-0.0016627053 -0.0011434339 -0.0017122318 0.00095476833 0.00033920625 0.0025675367 -0.00023053557 0.0006957437
-0.0007803455 -0.00078562717 -0.0026978208 -0.0015668658 0.0011222654 -0.0013708554 9.564031e-05 0.0025911233
0.0020028446 -0.0009950374 0.0009971741 0.001822877 4.8847403e-05 -0.0012910843 -0.00075591163 -2.105819e-05
-0.0011016836 0.0011637646 0.00057366333 0.001268618 -6.568996e-05 -0.0018133995 0.0008015187 -0.002228023
-0.00189869 0.0005836367 -0.0003831602 -0.0007038687 -0.00037436013 -0.00035563303 -0.0009598152 0.0009964166
0.00029208144 0.0018445536 -0.0022519156 0.0008735928 -0.0002330934 -0.0005016664 7.49398e-05 0.00029640284
-0.0013580455 0.0009350155 0.00032876624 -0.0006755909 -0.0017558233 -0.001283928 -0.00073104276 -0.0014053144
-0.0006089658 -0.0012906778 -0.0021520052 -0.00084163074 0.0015847185 0.0003944526 -0.00056638906 -0.00022620166
0.0018153398 0.000290799 0.0015099089 -0.001896099 -0.001000407 0.0013587412 0.0025284374 0.0014921821
-0.0019630878 -8.449901e-05 7.54181e-05 0.0016283316 -0.00087337027 5.1048584e-05 -0.0007279703 -0.0003452534
0.0010036753 0.0012241179 -0.0011638828 0.0009247392 0.0013780452 0.00025223126 -0.00021745538 0.00064654823
0.0003678226 -0.0006348655 0.0010093438 0.002205975 -8.093391e-05 -0.0009388186 0.001765964 0.0025430652
-0.0009582334 -0.0011804785 -0.0014249956 0.0017905838 -0.001094538 -0.0013170589 0.0006781566 0.0007209025
-0.00018488622 -0.0009846032 -0.0021078298 0.0010058547 0.00038786838 -0.00049296493 0.0002538162 -0.001941337
0.0012718199 -0.003178456 -0.0009840289 0.00015167898 -0.0018944162 -5.6114048e-05 0.001803059 0.0007463993
0.0012105664 -0.0017837886 0.0023404416 -0.001522764 0.0011011993 0.0008892526 0.0037161652 0.04006983
-0.015924819 -0.0015581221 0.025070041 0.0007820155 -0.0006843926 -0.3969371 -0.009367304 -0.26384503
-0.0009970032 0.014317316 0.002252163 0.38713044 0.023825832 0.0039590653 -0.0025918104 0.0009441649
0.048141245 -0.0013214333 -0.006028885 -0.002104022 -0.43224764 0.0004069684 -0.0027735434 -0.0014535633
-0.017447244 0.39324254 -0.033165023 -0.0024978623 -0.0011843506 0.0071792323 -0.005320387 -0.2744598
0.020068001 -0.39649525 -0.0006299404 -0.010903434 0.00015721211 -0.0017748319 0.016986761 0.046105374
-0.0021053073 0.008891017 0.28835508 -0.28117293 0.043795623 0.017694533 0.043351386 -0.02243176
-0.2792358 0.3761692 -0.01911184 0.048493166 -0.0016475542 -0.00027273514 0.0042418954 -0.33961216
-0.0025349208 -0.36519617 -0.00041558465 -0.023199936 0.0839172 -0.27715948 0.0015520343 0.0010454231
-0.19548714 -0.0031715666 -0.38563734 -0.0009638154 0.42956212 0.0013436751 0.0020621708 -0.022481836
0.00034855702 0.0013643535 -0.39126337 0.00224343 -9.114866e-05 -0.026026469 0.013268556 -0.00091556716
-0.0006967083 0.029947277 -0.00062164245 0.0033263944 -0.0017659032 0.01776079 1.31942925e-05 -0.0012235835
0.005834817 -0.00019579136 -0.015043257 0.00909728 -0.019332634 -0.004269085 -0.044770047 0.013129253
-0.014051575 0.0032533326 -0.0014685964 -0.011113777 -0.0012557053 0.0030010112 0.38335636 -0.0008195561
