bioinformatics/ComPath/compath_model_01/trained_model.pkl (torch_old, 676855 bytes, 2 tensors)

entity_embeddings.weight f4 [1125, 150]
000000 bc e0 58 3b a4 c0 2b 3b b3 c9 a0 bd cc 96 88 bb
       0.0033092937 0.0026207352 -0.07850971 -0.004168367
000010 e5 27 9d 3b 0e 1a 2b 3e d6 cd 8a bd e6 3b da 3d
       0.0047960156 0.16709158 -0.06777541 0.10655956
000020 c0 fe 4e bd da ff 19 3d 35 55 a8 bc bf 53 c3 bc
       -0.050535917 0.037597515 -0.020548442 -0.023843644
000030 30 61 1a 3d 0f 83 a8 bc 28 60 9a 3c 4a 92 0a be
       0.03769034 -0.020570306 0.018844679 -0.13532367
000040 ab dc 5c 3d 4c 8b 20 bd a7 be f1 bc 96 58 e7 3d
       0.053921383 -0.039195344 -0.029509855 0.11296193
000050 93 03 4c 3d fb 34 28 3d 13 50 91 3d 2a 0d 23 3e
       0.049808096 0.04106615 0.07095351 0.1592299
000060 dd 3e 61 bd 8b 70 92 3c d6 45 51 bd b9 03 f2 bd
       -0.05499159 0.01787593 -0.05109199 -0.11817116
000070 e4 40 84 3d 57 6d 28 3e 2f ac 04 3b ca da 32 bd
       0.064576894 0.1644796 0.002024423 -0.043665685
000080 9c 09 1e 3e 76 dd 12 be 5b 23 db bc 4d c1 f0 bc
       0.15433353 -0.14342293 -0.026750257 -0.029389048
000090 c8 21 f9 bc 30 0a 8b bd 9a d1 c7 bd aa c4 47 3b
       -0.030411616 -0.067890525 -0.09756775 0.003048221
0000a0 7a 64 b0 bd b2 73 d4 bd 3b 6a aa bd 98 17 08 3e
       -0.086129144 -0.1037363 -0.08321043 0.1329025
0000b0 ee 74 9c 3d 3f df 46 3c 94 23 c3 3d f5 08 a6 bd
       0.0763949 0.012138187 0.0952827 -0.08107177
0000c0 35 bb 0a bb ae 2a f8 bc 47 eb 94 3d 3f 45 3e bc
       -0.0021168713 -0.030293789 0.07271438 -0.011613189
0000d0 8f 45 1b 3b 7d 0e 4f bd 03 c5 80 bd eb c8 07 3e
       0.0023692583 -0.050550926 -0.06287577 0.13260238
0000e0 5d 5d 84 3d 37 a5 e8 bc a6 d2 eb 3b b7 f0 bf bd
       0.0646312 -0.028399093 0.007196742 -0.093720846
0000f0 50 8e 3f bd 76 30 8f bd da 72 3b bd 73 f0 75 bd
       -0.04676658 -0.06991665 -0.045763828 -0.060043763
000100 04 c9 e7 bc 10 70 1a 3d 7d 35 ae 3c aa e6 0b 3d
       -0.028294094 0.037704527 0.02126574 0.034155525
000110 10 68 2f 3e 63 4c e1 bc f3 cd 0a bd 46 63 ec 3c
       0.1712954 -0.027502244 -0.033887815 0.028855931
000120 5e e9 00 3d bb f8 ee bc ec d4 4e bb f9 0c 3a bd
       0.031472556 -0.029171338 -0.0031560017 -0.045422528
000130 d8 48 cd 3d 55 e6 be 3d b4 9c 9f 3d f2 c3 f5 3d
       0.100236595 0.09321276 0.077935606 0.12000264
000140 09 62 9b bd 7e b7 6c 3c 8c ed 71 bd b0 08 53 bd
       -0.07587058 0.014448045 -0.059064433 -0.051521957
000150 21 55 82 3d 02 5d 69 3d 39 1f 22 bd c4 3b ac 3d
       0.06363893 0.056973465 -0.039580557 0.08409837
000160 0c b3 b9 bd 4b 87 12 be d1 df 34 3e ff a7 0a 3e
       -0.090673536 -0.14309423 0.17663504 0.13540648
000170 c2 72 fb 3b c2 21 c9 bc f8 e0 d2 3d 5c f5 99 3d
       0.0076735923 -0.02455223 0.10296816 0.07517502
000180 d7 c0 a3 3c 39 f4 b5 bc 42 0c 89 bd 58 fe d0 bd
       0.019989414 -0.022211181 -0.06691791 -0.10204762
000190 e3 3e 0f 3e 6b 9d 65 bd bd 31 2d 3d 4a c7 85 3d
       0.13988833 -0.05605833 0.042283762 0.06532152
0001a0 27 3a f3 3c 44 6e 1b 3e fa 54 0b be 35 b0 3d 3d
       0.029690815 0.15178782 -0.13606635 0.046310622
0001b0 c1 c4 a9 39 b5 be 6e bd 06 66 24 3e 9f b9 e7 bd
       0.00032380785 -0.05828734 0.16054544 -0.11314701
0001c0 96 ee b2 3d 75 eb 6b 3d 22 65 27 bb 22 cd 0f be
       0.08736913 0.057597596 -0.0025542458 -0.14043096
0001d0 36 4c 53 3d 3f 57 15 bd 33 85 82 bd ea 95 18 be
       0.051586352 -0.036460157 -0.06373062 -0.14900938
0001e0 bd fc ec 3d e8 5f d7 3d 53 dc 9b 3d e5 9f 14 be
       0.115716435 0.105163395 0.07610383 -0.1451412
0001f0 1a 50 2e 3e ec f3 4b 3c fd 2a a2 bd 3f 9b 24 3d
       0.17022744 0.012448292 -0.079183556 0.040187117
000200 2b 31 03 be 41 22 f9 3c f7 02 85 bc 87 f2 91 3d
       -0.12811725 0.030411841 -0.016236765 0.071263365
000210 a8 86 03 be 0b 10 af b9 eb c6 99 bd 50 9b 14 be
       -0.12844336 -0.00033390554 -0.07508644 -0.14512372
000220 33 7a b4 3d 7d 1e 97 3d 24 bf 21 be 33 1f a6 3d
       0.0881237 0.07378862 -0.1579557 0.081114195
000230 32 3a d1 bc ef 74 7b bd b3 2c 47 3d 9c b2 90 3c
       -0.025540445 -0.061390813 0.048626613 0.017663293
000240 a9 24 a4 bd 70 55 d4 3d 33 0a 28 bd 19 fb bc bd
       -0.08014805 0.103678584 -0.04102535 -0.092275806
000250 c2 9b 81 3d e2 d5 8a bd 50 c9 9d bd 38 26 12 3d
       0.063285366 -0.06779076 -0.07704413 0.03568098
000260 5a ef fe bd 21 d9 db bc d1 cd 08 3c 10 c2 2c 3e
       -0.124479964 -0.026836934 0.008349852 0.16870904
000270 60 3c 85 bc a6 51 1d be 6b 57 10 bd 83 bb 03 3d
       -0.01626414 -0.15363178 -0.03523962 0.032161247
000280 29 48 cc bc 18 8d 29 3d 14 de 1d bc 88 01 c6 bc
       -0.024936752 0.041394323 -0.009635467 -0.024170652
000290 df d6 03 bc 7c d4 f8 bd 70 a5 f3 3c 9d ef 03 bc
       -0.008046835 -0.12149903 0.029741973 -0.008052734
0002a0 f7 8b f6 bc 1e 3f b3 3d d9 7b 1f 3e 16 f8 2f 3d
       -0.030096037 0.08752273 0.15574588 0.042961203
0002b0 f2 2c 24 3e f2 3c e1 bd 39 a8 51 bd 31 a6 1a be
       0.1603277 -0.109979525 -0.05118582 -0.1510246
0002c0 8e d5 ac bd 25 b1 0d be 7c dc a6 3c c7 29 1b 3e
       -0.0843917 -0.13837107 0.020368807 0.15152656
0002d0 84 4d 5f bb 48 14 82 bd ef b9 13 3e 37 8d 11 be
       -0.0034073303 -0.063515246 0.14426397 -0.14214025
0002e0 0c a0 29 bd d2 82 1a bd fe 90 81 bd d1 54 bc bd
       -0.0414124 -0.037722416 -0.06326483 -0.09195865
0002f0 f5 8a 0c 3e 00 96 71 3d 3c 5b c5 bd 58 44 db bd
       0.13724883 0.05898094 -0.09636542 -0.10706395
000300 22 4f 91 bd d1 fd b4 3d 8b 7c 92 3d 74 d3 04 bd
       -0.070951715 0.08837474 0.07152661 -0.03242822
000310 75 3e ba 3d 0f b1 85 bd 3c 9d 84 bb 5b 57 9d bb
       0.09093944 -0.06527912 -0.004047064 -0.0048016733
000320 3c 15 66 3d 42 44 93 3b f6 2a 3d 3b 48 c4 11 bd
       0.056172594 0.004494221 0.0028864718 -0.03558758
000330 9e f9 5b bd 45 f4 08 3e 25 7a 92 3d 09 04 1d be
       -0.05370485 0.13374431 0.071522035 -0.1533357
000340 90 27 b9 3d 0f c1 45 bd 53 d2 41 bd c6 c2 0a 3e
       0.09040749 -0.04827982 -0.04731972 0.13550863
000350 99 29 42 bd 98 00 96 bd 1f 77 36 3d b1 55 65 3d
       -0.047402952 -0.07324332 0.044547196 0.055989925
000360 57 18 04 3c 56 5f df 3d d5 a5 30 3e 74 df 5d bd
       0.008062444 0.10906856 0.1725076 -0.05416818
000370 28 29 3d bd 26 af d7 3c 64 1f bb bc d7 76 83 bc
       -0.046181828 0.026328634 -0.022842117 -0.016047878
000380 e3 9b 47 3c 16 75 5a 3d 2e 68 c5 3d 5d a5 84 3d
       0.012183162 0.053334318 0.09639011 0.06476853
000390 00 94 95 3d 69 b2 e5 3d e5 9b b7 3b 1c b2 56 3c
       0.073036194 0.1121567 0.005603301 0.013103988
0003a0 6c 4d 70 bd 8c 1b 92 bc 06 fe c6 3d bc ef 8e bc
       -0.058667585 -0.017835401 0.0971642 -0.017448299
0003b0 3e e0 09 bd fd 85 b1 3d 1f 34 b1 bd 45 1d 54 bd
       -0.03366112 0.08668134 -0.086525194 -0.051785726
0003c0 b1 f5 4b bd 1a 8b 09 3e 57 9a 50 bb 59 82 0b be
       -0.049794856 0.1343197 -0.0031830275 -0.13623942
0003d0 d3 0e d2 3d 7c 79 64 3d 99 b6 bc 3c a3 6b a4 bc
       0.10256734 0.05577992 0.023036288 -0.020070856
0003e0 db bc 79 bd 5f ba d5 bd 24 43 ae 3d cc 1b 9d bd
       -0.060971122 -0.10435938 0.085089 -0.076713175
0003f0 4f 91 02 3c 2f 03 92 3d ad 6e 12 3d bd 48 0a 3e
       0.007969215 0.071295135 0.03575008 0.1350431

relation_embeddings.weight f4 [2, 150]
000000 ec a4 9a 39 80 99 88 b8 56 5f 06 3b 70 5d 8d b9
       0.00029496045 -6.513577e-05 0.0020503602 -0.00026963232
000010 60 36 60 38 b4 47 4c 3a a0 e0 90 b8 50 f8 ad b8
       5.3456402e-05 0.0007792667 -6.908295e-05 -8.295535e-05
000020 00 98 91 39 80 62 13 b8 90 8c ef 38 12 32 05 3a
       0.00027769804 -3.5139266e-05 0.0001142259 0.00050810084
000030 44 1c ed b9 40 05 9e 38 b0 69 d0 3a 6d cd 84 ba
       -0.00045225222 7.535005e-05 0.0015900638 -0.0010132022
000040 16 2c a4 ba f0 d3 07 3a 34 fc 4c 3a 80 00 a5 b7
       -0.0012525346 0.00051814225 0.00078195636 -1.9669766e-05
000050 0a 16 19 ba 9c 43 dc 39 00 58 8a 37 80 04 04 37
       -0.0005839771 0.00042012043 1.649186e-05 7.868861e-06
000060 30 d9 0e 3a e6 43 5c 3a 51 09 96 3a a0 80 5f b9
       0.00054492336 0.00084024516 0.0011446868 -0.00021314854
000070 66 61 1f bb 68 b3 12 39 64 60 42 3a 13 48 be 3a
       -0.0024319529 0.00013990479 0.0007414876 0.0014517329
000080 8c a1 5a 3a 30 85 cd b9 b3 f4 bb 3a ec fb 48 3a
       0.00083401124 -0.0003919988 0.0014339894 0.0007666934
000090 19 8b f3 ba 88 91 4c b9 60 d1 21 3a df a2 e9 3a
       -0.0018580883 -0.0001950917 0.0006172862 0.0017825029
0000a0 c4 eb 3d ba 88 76 81 39 e0 77 34 39 62 33 51 ba
       -0.00072449096 0.0002469311 0.00017210795 -0.0007980374
0000b0 04 b7 16 bb 08 77 7a 39 b8 0d 02 ba 00 66 ff b8
       -0.002299727 0.000238862 -0.00049611507 -0.000121783465
0000c0 b2 81 79 ba 90 0f b3 b8 f6 66 41 ba 76 fc 64 ba
       -0.00095179223 -8.538284e-05 -0.0007377708 -0.00087351294
0000d0 7e 16 8a ba 98 09 da 39 60 2c 7e 3a 7c 2a b9 39
       -0.0010535268 0.00041587348 0.00096959434 0.00035317603
0000e0 b8 d1 0f bb 76 5a 94 3a 12 6e 2c 3a 90 8e 73 39
       -0.002194507 0.0011318463 0.0006577681 0.00023227395
0000f0 42 a0 5a 3a 04 bb 21 ba b4 e7 1f 3a 80 71 a5 b8
       0.00083399203 -0.000616953 0.0006099895 -7.888954e-05
000100 20 5f 10 39 42 5e 9f ba 5a 14 65 ba da 10 12 ba
       0.00013768347 -0.0012158828 -0.00087386894 -0.0005571969
000110 8e 51 10 3a 9e 7b 03 bb e7 4b d9 ba 61 75 08 3b
       0.00055053167 -0.0020062695 -0.0016578407 0.0020821916
000120 a0 9c 93 38 00 60 38 37 67 74 cb 3a a0 c5 13 b9
       7.03868e-05 1.0989606e-05 0.0015522362 -0.00014092634
000130 1a 01 65 3a e4 b6 86 39 c2 ef 98 ba cf 96 b3 ba
       0.0008735821 0.00025694736 -0.0011668133 -0.0013701561
000140 6d af d6 3a 9c 02 c5 b9 78 58 40 39 d4 8d 87 b9
       0.0016379185 -0.00037576712 0.00018343504 -0.00025854877
000150 88 47 08 ba e0 87 8d b8 66 a3 19 ba 70 7d 87 b9
       -0.0005198647 -6.7487126e-05 -0.0005860835 -0.00025842665
000160 24 30 49 ba 5a 11 cb 39 3a 7e c7 b9 a4 30 98 3a
       -0.0007674715 0.00038732105 -0.00038050284 0.0011611176
000170 14 2f fa 39 4d e4 ff 3a 7c ad c2 b9 df 7b c8 ba
       0.00047718792 0.0019522995 -0.0003713182 -0.0015295706
000180 c8 ec 13 3a 44 74 90 b9 30 e2 b7 39 40 1e c2 b9
       0.0005642888 -0.00027552445 0.00035073003 -0.00037025101
000190 00 96 e8 37 48 c7 18 ba bc 42 02 bb c0 55 9d 38
       2.7726404e-05 -0.0005828035 -0.0019876203 7.5023156e-05
0001a0 9a 4e 1a ba a6 53 38 ba 12 36 14 ba 44 1a 4a 3a
       -0.00058863463 -0.00070315076 -0.0005653809 0.00077096024
0001b0 e0 16 01 39 db cd c4 ba 86 52 a1 ba 20 7f 70 38
       0.0001231092 -0.0015014963 -0.0012307919 5.7338853e-05
0001c0 72 27 83 3a 10 37 bc b8 c0 f4 6f b8 76 e3 ab 3a
       0.0010006262 -8.974795e-05 -5.720998e-05 0.0013114053
0001d0 76 bc a2 39 20 6a 94 38 59 d1 97 ba 68 b7 23 39
       0.00031039462 7.076957e-05 -0.0011582776 0.00015613216
0001e0 53 89 c5 ba 4e d5 65 ba 28 04 85 39 cc 22 8e 39
       -0.0015070833 -0.00087674416 0.00025370833 0.00027110276
0001f0 00 8e 54 38 66 fc 9b ba f0 d9 ce 39 36 1d 4f 3a
       5.0676987e-05 -0.0011900782 0.00039453758 0.0007900776
000200 40 1b 21 39 b8 de 94 b9 28 0e e7 b9 3c 69 52 3a
       0.00015364308 -0.00028394698 -0.000440703 0.00080265454
000210 b8 74 9b b9 18 ac 47 39 ba 65 29 ba dc e0 b8 39
       -0.00029650866 0.00019042229 -0.0006461997 0.00035262748
000220 4c 17 c2 b9 1b 41 84 ba 68 1f 0b bb a6 cc 62 3a
       -0.0003701992 -0.0010090204 -0.0021228436 0.0008651711
000230 4c 63 54 3a 5a 54 30 3a 14 96 bb b9 f4 b8 6e ba
       0.00081019546 0.00067264365 -0.00035779236 -0.00091065397
000240 ea 48 51 3a fd 2d 84 3a cf dc bf 3a 9c a3 f0 b9
       0.00079835823 0.0010084506 0.001463795 -0.00045898266
000250 00 48 8c 37 db e6 d0 3a 0d 97 c9 3e 16 08 a9 3e
       1.6722828e-05 0.0015937941 0.39373055 0.33013982
000260 15 9d 3e bd d1 9e 9f bc 9b 0d 56 ba aa 86 3f 3b
       -0.046536524 -0.01948491 -0.00081654795 0.0029224553
000270 1d f5 ce 3e 9d 93 96 bc cd b6 da 3b 60 4f 86 bb
       0.40421382 -0.018380934 0.0066746236 -0.0040988177
000280 77 62 25 b9 9a 4e 04 bd 21 9f 18 be 9e 7d 3f 3b
       -0.00015772307 -0.032301523 -0.14904453 0.002921916
000290 17 a4 1d 3d 10 83 ab bc 15 72 b5 be 80 d1 ca 3e
       0.038486566 -0.020936519 -0.354386 0.3961296
0002a0 f4 70 14 bb 0d 49 93 bc 03 3b c8 3c 12 35 76 bc
       -0.0022650333 -0.01797917 0.024442201 -0.015027301
0002b0 4d a8 d4 3c 25 51 0f ba a3 6f 92 39 98 29 de 39
       0.025959158 -0.00054671086 0.00027930466 0.0004237413
0002c0 13 62 20 bd d4 41 a3 3c 7e 4e a5 3a 74 fb a6 3b
       -0.03915603 0.01992885 0.0012611893 0.0050958935
0002d0 ea 27 0d 3b 90 28 d1 3c eb 08 1b 3c 17 65 94 3c
       0.0021538683 0.025532037 0.009462575 0.01811461
0002e0 de 4b b1 3e 0d f4 5c b9 d6 09 a2 3d 93 08 e5 bc
       0.34628195 -0.00021071751 0.07912032 -0.02795819
0002f0 03 c5 9e 3c 54 93 b8 be af 41 6e 3c 5c a5 21 3c
       0.019381052 -0.36049902 0.014542027 0.009866085
000300 c3 b4 14 3b 9b 68 8e 3b 37 4b 14 3d cf 37 d4 39
       0.002269075 0.004345966 0.036204543 0.00040477372
000310 c0 19 88 38 a1 4c 77 3c 1b 70 00 3b 4e a1 8e 3e
       6.489782e-05 0.015093953 0.001959807 0.2785744
000320 cc 4d bc be dc 35 d1 be 18 83 cf be 7a 7e 97 b8
       -0.36778104 -0.40861404 -0.40529704 -7.223799e-05
000330 6f b6 13 3d a9 64 1d 3b 11 b9 ef 3a 2a 77 27 bc
       0.036062654 0.0024016297 0.0018289407 -0.010221282
000340 19 c3 ea 3a 2e 8b e0 39 df 58 67 3b db 30 0c bb
       0.0017910927 0.00042828306 0.0035300774 -0.0021391425
000350 90 55 4a 39 a0 9c dc bc 7b 41 28 3d 89 3f 20 bb
       0.00019296096 -0.026930153 0.041078072 -0.0024451932
000360 ef 98 58 b9 50 b6 3a 3d 38 fc ed ba 53 30 ea 3c
       -0.00020656337 0.045584023 -0.0018156832 0.028587496
000370 fd 8c c3 3e 22 e1 95 bc d6 2c 59 bc 84 a1 68 3c
       0.38193503 -0.018295828 -0.013255319 0.014198665
000380 1b cb 44 3d 6b 58 d1 36 84 c4 65 3c e5 34 fc 3c
       0.04804526 6.2389786e-06 0.014023904 0.03078694
000390 d7 f6 28 bb 02 9d 58 bb 42 d4 8d 3e 73 54 08 bb
       -0.0025781894 -0.0033052568 0.27701002 -0.0020802289
0003a0 66 02 b1 3a c2 b5 ac 3e d9 b6 5d 3d 0a 2e b8 be
       0.0013504743 0.3373242 0.054129455 -0.35972625
0003b0 f4 90 11 3b a7 93 25 bb 8f 62 3d ba a6 25 3e bc
       0.0022211643 -0.002526501 -0.0007224464 -0.011605656
0003c0 07 2d 9a 3d 9c 5d de b9 3e 34 78 ba 5f 25 b6 39
       0.075281195 -0.00042412884 -0.0009468234 0.0003474159
0003d0 f0 33 ab 39 41 f1 86 be bd 54 17 3b 47 03 74 bb
       0.00032654358 -0.26355937 0.002309128 -0.0037233399
0003e0 cc f3 44 3b 18 13 34 bb 30 08 a7 ba 45 b3 93 bc
       0.003005254 -0.00274772 -0.0012743529 -0.018029818
0003f0 d6 26 ac 3b 18 7f 97 bb 63 28 c6 be 9c 3f 0c 3b
       0.005253653 -0.004623305 -0.38702688 0.0021400219
